notebooks/checkpoints/checkpoint-0-width-10-layers-10.ckpt (torch, 13455 bytes, 8 tensors)

linear_relu_stack.0.weight f4 [64, 3]
0	0x3f412cd4	0.7545903
1	0x3def8e23	0.11697032
2	0xbeb33315	-0.3499991
3	0x3f131203	0.5744936
4	0x3e840741	0.25786784
5	0xbf5fdfb6	-0.8745073
6	0x3f213db1	0.6298476
7	0xbf11b7e3	-0.56921214
8	0x3e3d485b	0.18484633
9	0xbd17493a	-0.03693507
10	0x3eb3ac9d	0.3509263
11	0xbf615ebe	-0.8803519
12	0xbf43db61	-0.7650662
13	0x3f551e27	0.83249134
14	0xbe36edb9	-0.17864121
15	0x3e71cef8	0.23614109
16	0xbf0d582c	-0.55212665
17	0xbee0ea62	-0.4392882
18	0xbe36fc78	-0.17869747
19	0xbf00978b	-0.50231236
20	0xbee2c3e4	-0.44290078
21	0xbf0c4d62	-0.54805577
22	0xbec4d6e3	-0.38445196
23	0xbeb3b528	-0.3509915
24	0xbe8793af	-0.2647986
25	0x3f058527	0.521563
26	0xbf2227cb	-0.6334197
27	0xbe800de5	-0.250106
28	0x3e171ed0	0.14757848
29	0xbe09c76a	-0.13454977
30	0x3e2d5798	0.16927946
31	0xbf02db8c	-0.5111625
32	0x3eeaed85	0.45884338
33	0xbee7366e	-0.45158714
34	0x3df7baf7	0.120962076
35	0xbe5e239f	-0.21693276
36	0x3cca308f	0.024681358
37	0x3e5ee9e4	0.2176891
38	0xbf2f97ed	-0.68591195
39	0xbef22d99	-0.47300413
40	0xbecb2459	-0.3967617
41	0xbcb4e7d6	-0.022083204
42	0xbf0e18a4	-0.5550635
43	0xbf055924	-0.5208914
44	0xbef209ef	-0.47273204
45	0x3ecae045	0.3962423
46	0x3ea136f6	0.31487244
47	0x3e82ffcd	0.25585786
48	0x3e14903a	0.14508143
49	0xbe5c3d14	-0.21507674
50	0x3e575d43	0.2103167
51	0xbeab2609	-0.33427456
52	0xbf426ab5	-0.7594407
53	0x3f3ebada	0.7450386
54	0xbe1e2b14	-0.1544612
55	0x3f0b2f14	0.5436871
56	0xbe5ce21b	-0.21570627
57	0xbeea34f2	-0.4574352
58	0xbe982c21	-0.29721168
59	0x3f0e3a73	0.55557936
60	0xbe14069a	-0.14455643
61	0x3f3b00b2	0.73047936
62	0xbee0b5d2	-0.43888718
63	0x3cc72d00	0.02431345
64	0xbf00f305	-0.5037082
65	0xbf07a492	-0.5298549
66	0xbed14037	-0.40869305
67	0xbdd3e3d0	-0.10346186
68	0xbea96663	-0.33085927
69	0x3f67ca17	0.9054274
70	0xbe9bb7a1	-0.30413535
71	0x3f173572	0.59065926
72	0x3f41d6f4	0.7571862
73	0xbf588dbe	-0.8459128
74	0x3f85c6e9	1.0451328
75	0xbf587823	-0.84558314
76	0x3e0d6a17	0.13810001
77	0x3f32e781	0.69884497
78	0x3e3a414e	0.18188974
79	0x3e5aa665	0.21352537
80	0xbe18e982	-0.14932826
81	0x3efc90f7	0.4932935
82	0xbf4e1207	-0.8049626
83	0x3f987da5	1.1913344
84	0xbf8da48a	-1.1065838
85	0x3e3f1947	0.18661986
86	0x3f66e735	0.90196544
87	0x3e9bc299	0.30421904
88	0x3e63fbaf	0.22263978
89	0x3e494f62	0.19659188
90	0xbec55c14	-0.38546813
91	0x3e4011aa	0.18756738
92	0xbf23934e	-0.63896644
93	0x3e64959c	0.22322696
94	0xbeb5d2a1	-0.3551226
95	0x3ccbe1cf	0.024887947
96	0xbf6431a5	-0.8913825
97	0xbe4ec3bc	-0.20191854
98	0x3f7cb75b	0.9871728
99	0x3dfd7d2a	0.12377389
100	0xbf158ed1	-0.58421046
101	0x3ea6efd0	0.32604837
102	0x3ed00777	0.40630695
103	0x3f36dac5	0.71427566
104	0xbdb7eb90	-0.08980477
105	0x3ef45eb2	0.47728497
106	0x3e6badda	0.23015538
107	0x3e533ae8	0.2062794
108	0x3dee6b66	0.116415784
109	0x3eb0a3ee	0.34500068
110	0xbdf0a697	-0.117505245
111	0xbf23ea98	-0.64029837
112	0x3f07157d	0.52767164
113	0xbf0e4d53	-0.5558674
114	0x3e5f8c2c	0.21830815
115	0xbf0284da	-0.50983965
116	0xbf06079b	-0.52355355
117	0x3f5a6e9e	0.8532504
118	0xbc870563	-0.01648206
119	0xbecc0922	-0.39850718
120	0x3e9444d4	0.28958762
121	0xbf0db2b0	-0.5535078
122	0xbe8d8597	-0.27640983
123	0x3f17b4ec	0.5926044
124	0x3f34c813	0.7061779
125	0xbf0b03e4	-0.5430281
126	0xbed82d72	-0.42222172
127	0x3f2ee986	0.6832508
128	0xbf2fe101	-0.68702704
129	0xbf131aad	-0.5746258
130	0x3e5dc964	0.21658856
131	0x3ed331b0	0.41248846
132	0xbf97d32d	-1.1861321
133	0x3f6d4838	0.9268832
134	0xbf0ef94b	-0.5584914
135	0xbebd1c1f	-0.36935517
136	0x3ebb15c3	0.3654004
137	0x3ebe5cda	0.37180215
138	0x3d37aa40	0.044840097
139	0xbdaee544	-0.08539823
140	0xbe3ab9b2	-0.182349
141	0x3e7caa62	0.24674371
142	0xbe9985e6	-0.2998497
143	0xbda4bc27	-0.080437
144	0xbf14d957	-0.58144134
145	0x3da788f4	0.081804186
146	0x3e0489d4	0.12943202
147	0xbe928da5	-0.2862369
148	0xbeb3ea53	-0.35139713
149	0xbedd6e6e	-0.43248314
150	0x3f955902	1.1667788
151	0xbe4aac91	-0.19792391
152	0xbf19784f	-0.599492
153	0x3ed41f8e	0.41430324
154	0xbeb2b1d8	-0.3490131
155	0xbe4af2bf	-0.19819163
156	0x3eda8819	0.4268196
157	0xbe8f5d1a	-0.28000718
158	0xbece4da1	-0.402936
159	0x3e23b61f	0.15987442
160	0x3f338a18	0.7013259
161	0xbe490db3	-0.19634132
162	0x3d305ba5	0.04305615
163	0x3e965607	0.2936251
164	0xbec3838d	-0.38186303
165	0xbdbc8574	-0.09205142
166	0x3e24b8a4	0.1608606
167	0x3f054435	0.520572
168	0xbf53a46c	-0.8267276
169	0x3f0d2a79	0.55142933
170	0x3ed48ae3	0.41512212
171	0x3f64229b	0.89115304
172	0xbf129542	-0.57259
173	0x3f1b2124	0.60597444
174	0xbf266383	-0.6499559
175	0xbf6b7117	-0.91969436
176	0x3f1fa70d	0.62364274
177	0x3e06fe90	0.13183045
178	0x3f2ea39b	0.6821839
179	0xbf41743c	-0.75567985
180	0x3f457a46	0.771397
181	0x3e3898ac	0.1802699
182	0xbf0f8edf	-0.5607738
183	0xbed56cc7	-0.41684553
184	0x3e29b2aa	0.16572061
185	0xbf139381	-0.5764695
186	0x3e8d92ba	0.27651006
187	0xbeba6d7a	-0.3641165
188	0x3d285c07	0.04110339
189	0xbdd16bb5	-0.102256216
190	0xbedd66a9	-0.43242386
191	0x3d21a783	0.039466392

linear_relu_stack.0.bias f4 [64]
0	0x3f2a960e	0.66635215
1	0xbf1061bf	-0.5639915
2	0x3f80c88e	1.0061204
3	0x3bf097a9	0.007342298
4	0xbe526e02	-0.20549777
5	0xbed65454	-0.41861212
6	0x3eb456fe	0.3522262
7	0x3d81c440	0.0633626
8	0xbed1fdb4	-0.41013873
9	0x3f09319d	0.5359133
10	0x3f0850e3	0.53248423
11	0x3f059ba0	0.5219059
12	0x3e683b1d	0.226788
13	0xbdf3f97c	-0.1191282
14	0xbd5597a0	-0.052146554
15	0x3e756217	0.239632
16	0xbe5e2c2e	-0.2169654
17	0xbe298666	-0.16555175
18	0xbf026576	-0.5093607
19	0x3c7a317a	0.015270585
20	0xbe75bae9	-0.23997082
21	0xbe63eb9c	-0.22257847
22	0xbe29be89	-0.1657659
23	0x3e972c08	0.2952578
24	0x3efff228	0.49989438
25	0x3f804af6	1.0022876
26	0x3f37bc90	0.717721
27	0xbe7b6bef	-0.24552892
28	0xbe0d737e	-0.13813588
29	0x3f0eab14	0.55729795
30	0x3eafddb4	0.34348834
31	0x3eb1318a	0.34608108
32	0x3f2f7410	0.6853647
33	0x3e871d7a	0.26389676
34	0xbf1acb35	-0.6046632
35	0xbf2d1215	-0.67605716
36	0xbee465a1	-0.44608787
37	0x3cfa27ce	0.030536558
38	0x3f122fee	0.57104385
39	0xbdee1fa1	-0.116271265
40	0xbf00289c	-0.50061965
41	0xbf4c366d	-0.7977055
42	0x3f442f19	0.76634365
43	0x3f79b837	0.97546715
44	0xbea75f17	-0.32689735
45	0xbf0a10b0	-0.53931713
46	0xbe08fc9e	-0.13377616
47	0x3c8a3ddb	0.016875198
48	0xbf0a15e3	-0.53939646
49	0xbeeb06df	-0.4590368
50	0xbee4504b	-0.4459251
51	0xbdb9fcb2	-0.09081401
52	0xbec2d6d8	-0.38054538
53	0xbd2ca0cc	-0.042145535
54	0x3f064971	0.5245581
55	0xbf671455	-0.902654
56	0xbf5f06ff	-0.8712005
57	0x3edce65d	0.43144503
58	0x3d24af06	0.040205978
59	0x3e91e310	0.28493547
60	0xbe833864	-0.2562896
61	0x3edbad09	0.42905453
62	0x3e411b1d	0.18857999
63	0xbd88ff88	-0.06689364

linear_relu_stack.2.weight f4 [16, 64]
0	0x3e6303e7	0.22169457
1	0x3e293159	0.16522731
2	0x3ef762a3	0.4831744
3	0xbe67a8f8	-0.2262305
4	0x3e33035b	0.17481749
5	0x3d96d2f0	0.07364452
6	0xbde2947a	-0.11063476
7	0xbd80d914	-0.06291404
8	0x3e0b1cb5	0.1358517
9	0x3dbabfb1	0.091185935
10	0x3e84996a	0.25898296
11	0x3e76d95c	0.24106354
12	0xbe23344a	-0.15937915
13	0x3a70e579	0.00091894675
14	0xbda78cf0	-0.081811786
15	0xbde0995b	-0.1096675
16	0xbc7916d3	-0.015203196
17	0xbbd976dd	-0.006636484
18	0x3c58fa7e	0.013243316
19	0x3dd87964	0.105700284
20	0x3e47347f	0.1945362
21	0x3b917280	0.0044386983
22	0xbbfb1a3c	-0.0076630395
23	0x3e705438	0.23469627
24	0x3eaf5960	0.34247875
25	0x3e957923	0.29193982
26	0xbcbf615d	-0.023361856
27	0xbc93e050	-0.018051296
28	0x3e4ff72c	0.20309132
29	0xbd210c1c	-0.03931819
30	0xbda2c58a	-0.07947834
31	0xbd6920c5	-0.056916017
32	0x3e9e1df9	0.30882242
33	0x3e75820f	0.23975395
34	0xb9fa0bda	-0.00047692546
35	0xbe8c4b32	-0.2740112
36	0x3d08837c	0.03332852
37	0x3eb45fc6	0.3522932
38	0x3dd2c9b4	0.10292378
39	0x3e488bb6	0.19584545
40	0x3d8bc1d5	0.0682408
41	0x3d858e42	0.06521274
42	0x3e61afb9	0.22039689
43	0x3dd2750a	0.1027623
44	0x3f0450a2	0.51685536
45	0xbdc6985e	-0.096970305
46	0x3da326a4	0.079663545
47	0xbdb87954	-0.090075165
48	0x3e89609c	0.2683152
49	0x3dfb5a7e	0.122731194
50	0x3ecc464c	0.39897382
51	0xbda1c79f	-0.07899403
52	0xbcc7f433	-0.024408435
53	0xbde0bbb3	-0.10973301
54	0x3e1c77c4	0.15280062
55	0xbe0196bb	-0.12655155
56	0xbe260805	-0.16213997
57	0x3f0f53b0	0.5598707
58	0x3e60840e	0.21925375
59	0x3e460668	0.19338381
60	0x3daf649f	0.08564114
61	0x3ce31926	0.027721953
62	0x3d81e8a9	0.063432045
63	0xbde32e46	-0.1109281
64	0xbcccb784	-0.02498985
65	0x3da9333a	0.08261724
66	0x3e3fb1a8	0.18720114
67	0xbcdde1ef	-0.027085273
68	0x3db5d6f6	0.08878891
69	0xbd1abdb4	-0.03777857
70	0xbce6fb58	-0.028196022
71	0xbc341a30	-0.010992572
72	0x3c82628c	0.015916131
73	0xbced132c	-0.028939806
74	0x3e52315c	0.20526642
75	0x3ddd9b9f	0.10820698
76	0x3deb14e7	0.11478596
77	0xbdbe023f	-0.09277772
78	0xbb2d8080	-0.0026474297
79	0xbe4b5539	-0.19856729
80	0x3e45c0f1	0.19311883
81	0x3e42845e	0.18995807
82	0xbcb5bce0	-0.02218479
83	0x3d01396a	0.031548895
84	0xbd4598c0	-0.048241377
85	0x3d8ed2e6	0.069738194
86	0x3d394c94	0.045239046
87	0x3e4eef5e	0.20208499
88	0x3f0e22bd	0.55521756
89	0xbebe43ff	-0.37161252
90	0xbe6ed737	-0.23324285
91	0x3f006d01	0.50166327
92	0xbd437b05	-0.047724742
93	0xbe313db2	-0.17308691
94	0x3dd08326	0.101812646
95	0x3e3d0ca5	0.18461855
96	0xbe097cde	-0.1342654
97	0x3ec6c105	0.38819137
98	0xbe5072c1	-0.20356275
99	0x3db7502e	0.0895084
100	0xbe1c72a3	-0.15278105
101	0x3ccac294	0.024750985
102	0xbc8f8778	-0.017520651
103	0x3d889348	0.06668717
104	0xbdc27d6d	-0.09496579
105	0xbebf50ad	-0.37366238
106	0xbd845c3f	-0.06462907
107	0xbeedc349	-0.46438053
108	0x3dc2d260	0.09512782
109	0xbdd8e288	-0.105900824
110	0xbdf9f070	-0.12204063
111	0x3dc02ff7	0.093841486
112	0xbb4fa1b8	-0.0031682085
113	0xbc9c0b28	-0.019048288
114	0x3e9996f4	0.2999798
115	0x3dfdf1f2	0.12399663
116	0xbd66bc96	-0.056332193
117	0xbf0c03b8	-0.54693174
118	0x3cd16b3d	0.02556383
119	0xbb4a6b25	-0.0030886617
120	0x3dc52d7a	0.096278146
121	0x3edfc864	0.43707573
122	0xbdf5743c	-0.119850606
123	0xbce2bb2c	-0.027677141
124	0xbe38a880	-0.18033028
125	0x3db7173c	0.089399785
126	0x3e62ed75	0.22160895
127	0xbe013948	-0.12619507
128	0xbbd06ed0	-0.006360866
129	0x3ebed592	0.37272316
130	0x3da8a337	0.08234256
131	0x3de301a8	0.110843
132	0x3e1022fb	0.14075844
133	0x3db177be	0.08665417
134	0xbc57f570	-0.013181075
135	0x3dd1bfee	0.10241686
136	0xbe6a94a9	-0.22908272
137	0x3dcc8213	0.09985747
138	0xbe55b950	-0.20871472
139	0xbd815938	-0.06315845
140	0x3e1b0c33	0.15141372
141	0xbcba9c1e	-0.02277952
142	0x3c576520	0.013146669
143	0x3dd46af6	0.10371964
144	0x3dde2bcd	0.10848198
145	0xbe3840bb	-0.17993443
146	0x3cddf35b	0.02709358
147	0xbec6fa6a	-0.38862926
148	0x3dfe3d9d	0.124140956
149	0xbd719fd4	-0.058990315
150	0x3c716f62	0.014736028
151	0x3dc02b9d	0.093833186
152	0xbf16b2d2	-0.5886661
153	0x3e4728b8	0.19449127
154	0x3cfdc655	0.030978361
155	0xbf070a23	-0.5274984
156	0x3eb4a329	0.3528073
157	0x3e112f1b	0.14178126
158	0x3da0cc6c	0.078514904
159	0xbd026b81	-0.031840805
160	0x3ee98140	0.45606422
161	0x3d6dbf02	0.058043487
162	0xbbe9b7a0	-0.0071324855
163	0x3cc9065f	0.02453917
164	0x3d6f29c5	0.058389444
165	0xbcded7cc	-0.02720251
166	0xbdcaa0f0	-0.09893978
167	0x3ba93d29	0.0051647616
168	0xbc2b4e86	-0.010455733
169	0xbc991959	-0.018688845
170	0x3d027825	0.03185286
171	0x3e584347	0.21119414
172	0x3e53b9c4	0.20676333
173	0xbda349ae	-0.07973038
174	0x3de4c112	0.11169638
175	0xbde753bb	-0.11295267
176	0xbe83446d	-0.25638142
177	0x3d3183c4	0.043338552
178	0x3eb5b168	0.35486913
179	0x3dba7b7c	0.09105584
180	0x3df84557	0.121226005
181	0xbca5e5a3	-0.0202511
182	0x3d981ade	0.074269995
183	0x3c4edb06	0.012625461
184	0x3d4772d7	0.048693504
185	0xbe9722d1	-0.2951875
186	0xbe3dd2ad	-0.18537398
187	0xbe2aa459	-0.16664256
188	0x3c47edb5	0.01220267
189	0xbb3206e6	-0.0027164756
190	0x3d87abf5	0.06624595
191	0xbdd9be65	-0.10632018
192	0xbdeb343f	-0.114845745
193	0x3d9b0d02	0.075708404
194	0xbe3daae2	-0.18522218
195	0x3c906dbb	0.017630449
196	0x3e03bc73	0.12864856
197	0xbdfb969e	-0.12284587
198	0x3aa0dd80	0.0012273043
199	0x3c6bd1d0	0.014393285
200	0xbd64912d	-0.055802513
201	0x3d185d51	0.03719837
202	0xbd86e389	-0.06586368
203	0xbce8a69e	-0.028399762
204	0xbc65ae8e	-0.014018668
205	0x3cfaf2c7	0.030633343
206	0xbda3f560	-0.08005786
207	0xbe473ab4	-0.19455987
208	0xbd98e2f1	-0.07465161
209	0x3e6936a0	0.22774744
210	0xbcc66493	-0.02421788
211	0x3e8eb6e1	0.278739
212	0xbe282c7f	-0.16423224
213	0x3d87060e	0.06592952
214	0x3dbfba53	0.093617104
215	0xbe9466a7	-0.28984568
216	0xbe99210a	-0.2990802
217	0x3eae3b56	0.34029645
218	0xbe1547c9	-0.14578165
219	0xbd11f371	-0.035632554
220	0x3ebf01ad	0.37305966
221	0xbe7eb299	-0.24872817
222	0x3c1692ef	0.009190305
223	0xbd2c8652	-0.042120285
224	0x3eb95494	0.3619734
225	0xbe45753f	-0.19283007
226	0xbf0a9667	-0.54135746
227	0xbe796dc4	-0.24358279
228	0xbd7d311a	-0.061814405
229	0xbe28134c	-0.16413611
230	0xbb25b300	-0.0025283694
231	0xbdc28b3d	-0.09499214
232	0x3d06fad0	0.032954037
233	0xbe37190e	-0.17880651
234	0xbe970268	-0.29494023
235	0x3e4b2644	0.19838816
236	0x3d2ce2e0	0.042208552
237	0x3cf806f2	0.03027675
238	0x3dec1542	0.11527492
239	0x3da1ad5b	0.07894393
240	0x3d553d13	0.052060198
241	0x3beb3d40	0.0071789324
242	0xbdf56e05	-0.11983875
243	0x3dbded69	0.09273798
244	0x3d703343	0.058642637
245	0xbe3bbde3	-0.18334155
246	0xbdc6a5ca	-0.096995905
247	0x3dddc99c	0.108294696
248	0x3e8cc4c2	0.27493864
249	0xbef6032b	-0.48049292
250	0x3ec16675	0.3777348
251	0xbdcec155	-0.10095469
252	0xbdbe7f45	-0.093016185
253	0x3da5e6fc	0.081006974
254	0x3c9677cb	0.018367669
255	0xbe032df9	-0.12810506

linear_relu_stack.2.bias f4 [16]
0	0x3e56b08d	0.20965786
1	0xbe0f062b	-0.13967197
2	0x3db80a49	0.08986337
3	0xbe09723c	-0.13422483
4	0xbdaf4718	-0.08558482
5	0xbe9a49f4	-0.30134547
6	0x3cdf6a49	0.02727236
7	0x3e8022ea	0.25026637
8	0xbec469cf	-0.38361976
9	0xbf405940	-0.75136185
10	0x3e7dffac	0.24804562
11	0xbe25f3f4	-0.16206342
12	0xbdedb133	-0.11606064
13	0xbe70d138	-0.2351731
14	0xbb7acb9d	-0.0038268336
15	0x3f834db0	1.0258083

momentum_buffer f4 [64, 3]
0	0x3dd9aa55	0.106281914
1	0x3eb242b8	0.34816527
2	0x3e03963e	0.12850282
3	0xbe753e76	-0.23949608
4	0xbeaffd65	-0.34373012
5	0xbe1d8730	-0.15383601
6	0xbe06bf6a	-0.13158956
7	0xbde3a168	-0.1111477
8	0xbd497251	-0.049181286
9	0xbd96d78f	-0.07365333
10	0xbd908fd1	-0.07058681
11	0x3cd6fe05	0.026244173
12	0x3d22f9d9	0.039789055
13	0x3e85bd13	0.26120815
14	0x3e851975	0.25995985
15	0x00000000	0.0
16	0x00000000	0.0
17	0x00000000	0.0
18	0x00000000	0.0
19	0x00000000	0.0
20	0x00000000	0.0
21	0x00000000	0.0
22	0x00000000	0.0
23	0x00000000	0.0
24	0xbe26b882	-0.16281322
25	0xbebef440	-0.37295723
26	0xbe131288	-0.14362538
27	0x3dbe28ac	0.09285101
28	0x3e81055f	0.2519941
29	0x3e3d47b6	0.18484387
30	0x3d474285	0.048647422
31	0x3d399e40	0.045316935
32	0xbc14ca8c	-0.009081494
33	0x3c324986	0.010881787
34	0x3ca65b10	0.020307094
35	0x3c8b5626	0.017008852
36	0xbd4a3f23	-0.049376618
37	0xbd93d9c0	-0.07219267
38	0x3b0fda90	0.0021950342
39	0xbad8e118	-0.0016546575
40	0x3ac4164f	0.0014960262
41	0x3b838cca	0.004014586
42	0x00000000	0.0
43	0x00000000	0.0
44	0x00000000	0.0
45	0xbcccc86e	-0.024997916
46	0xbd835e76	-0.06414501
47	0x3c98c032	0.018646333
48	0x3c787dda	0.015166724
49	0xbd04db5e	-0.032435767
50	0xbd8c5802	-0.06852724
51	0x3cea1ef0	0.028579205
52	0xbdc6861a	-0.096935466
53	0xbe5df257	-0.21674477
54	0xbd9ec75b	-0.07752868
55	0xbd44055e	-0.04785668
56	0x3dabc7bf	0.08387708
57	0x3d505c22	0.050869115
58	0xbdb3d338	-0.08780521
59	0xbdbe7b52	-0.09300865
60	0x3d2dd85a	0.042442657
61	0x3e3eec69	0.18644871
62	0x3e421ec3	0.18957047
63	0x00000000	0.0
64	0x00000000	0.0
65	0x00000000	0.0
66	0x3a413760	0.0007370617
67	0xba68d272	-0.00088814565
68	0xb9d294dc	-0.0004016523
69	0x3cd62529	0.026140766
70	0x3d814ebe	0.06313847
71	0xbcf8e46b	-0.030382356
72	0xbe94c79c	-0.2905854
73	0xbf260618	-0.6485305
74	0xbede0076	-0.43359727
75	0x3ecc51bf	0.39906117
76	0x3f4c85a6	0.7989143
77	0x3ed9b93d	0.42524138
78	0x3db26a62	0.08711697
79	0x3e810cca	0.2520507
80	0x3e133c16	0.1437839
81	0xbd955566	-0.07291679
82	0xbec480d7	-0.38379547
83	0xbec10750	-0.37700891
84	0x3e0d2b7b	0.13786118
85	0x3e542f17	0.20721088
86	0x3dc5b168	0.09652978
87	0x3de844ff	0.11341285
88	0x3e5a7e9e	0.21337363
89	0x3e04c2c2	0.12964919
90	0xbb428b34	-0.0029685022
91	0xbda6f36d	-0.081518985
92	0x3ab1048f	0.0013505387
93	0xbc8de4d8	-0.017321035
94	0xbbfd3214	-0.007726917
95	0xbce67f3c	-0.028136842
96	0x3d4c6ede	0.04991042
97	0xbe18bc22	-0.14915517
98	0xbdc5a0fc	-0.09649846
99	0xbc42d7ee	-0.011892302
100	0xbd06e336	-0.03293153
101	0xbd9324f4	-0.071847826
102	0xbdb96f5a	-0.09054442
103	0xbe950afa	-0.29109937
104	0xbe1ee84d	-0.15518303
105	0xbe17f762	-0.14840463
106	0xbec4f0b8	-0.38464904
107	0xbe6006ea	-0.21877638
108	0xbd347046	-0.044052385
109	0xbe1e55f7	-0.1546248
110	0xbde2654a	-0.110544756
111	0xbcac070b	-0.020999452
112	0x3d1194d7	0.035542335
113	0x3d13b9fe	0.036066048
114	0x00000000	0.0
115	0x00000000	0.0
116	0x00000000	0.0
117	0x3daf7e34	0.08568993
118	0x3eb556c2	0.35417753
119	0x3e419df2	0.18907908
120	0x384b4eb7	4.847228e-05
121	0x33a219d0	7.548408e-08
122	0x38267e37	3.969503e-05
123	0xbe0b9280	-0.13630104
124	0xbec2c586	-0.38041323
125	0xbe5cfcd6	-0.21580824
126	0x3e9074b4	0.28214037
127	0x3f136ba2	0.5758611
128	0x3e956652	0.29179627
129	0x3e5987ba	0.21243182
130	0x3f1c33ef	0.61016744
131	0x3ec96c5a	0.39340478
132	0xbe886978	-0.26642966
133	0xbf2d7dc7	-0.67770046
134	0xbec4f0e4	-0.38465035
135	0xbe1a2221	-0.15052082
136	0xbea508fd	-0.3223342
137	0xbe3674e2	-0.17818025
138	0x00000000	0.0
139	0x00000000	0.0
140	0x00000000	0.0
141	0xbbb07f32	-0.0053862566
142	0x3997f11a	0.000289806
143	0xbbc2dde3	-0.005946861
144	0x3c83edfa	0.016104687
145	0xbd5c4bf8	-0.053783387
146	0xbd37a61e	-0.044836156
147	0x00000000	0.0
148	0x00000000	0.0
149	0x00000000	0.0
150	0xbec83a70	-0.39107084
151	0xbf21e486	-0.63239324
152	0xbe6f84fd	-0.23390575
153	0x3ba924f6	0.005161877
154	0x3c277b93	0.0102223335
155	0xbb97f0a8	-0.0046368428
156	0xbb36bf2f	-0.002788495
157	0xbb412294	-0.0029470073
158	0x39bb57b6	0.0003573277
159	0x3cf05bfa	0.029340733
160	0x3df79a45	0.120899715
161	0x3e0e9958	0.13925683
162	0x3e003d4a	0.1252338
163	0x3e8ce6c1	0.275198
164	0x3e13d6bc	0.14437383
165	0xbe688a7e	-0.2270908
166	0xbf173c86	-0.59076726
167	0xbeb70653	-0.35747012
168	0xbe8771ce	-0.26454014
169	0xbec0c34f	-0.3764901
170	0xbdfd9d84	-0.12383559
171	0x3cd30fbf	0.025764344
172	0xbc888fa0	-0.016670048
173	0xbde8203d	-0.11334274
174	0x3d7251d5	0.059160072
175	0xbd37202d	-0.04470842
176	0xbde4c2ac	-0.11169943
177	0x3e162196	0.1466125
178	0x3e9ccce0	0.30625057
179	0x3e468aa6	0.19388828
180	0x3cbef61e	0.023310717
181	0x3de8a7f0	0.113601565
182	0x3d6e85ec	0.058233187
183	0x3bb48dd4	0.0055100713
184	0xbd54958c	-0.05190043
185	0x3aef7b2a	0.0018270959
186	0xbae082fe	-0.0017128882
187	0x37783800	1.479499e-05
188	0xbc8b0c66	-0.016973685
189	0xb8a6b2f5	-7.94883e-05
190	0x3787988b	1.6164287e-05
191	0xb89acb5a	-7.3811694e-05

momentum_buffer f4 [64]
0	0x3c8cddc2	0.017195586
1	0xbceb7087	-0.02874018
2	0xbd3b1bc2	-0.04568077
3	0xbbc625fd	-0.006047009
4	0x3d6574c6	0.056019567
5	0x00000000	0.0
6	0x00000000	0.0
7	0x00000000	0.0
8	0xbd26f42f	-0.040760215
9	0x3cf06c47	0.029348506
10	0xbb4d81d6	-0.0031357906
11	0x3bc51970	0.0060149953
12	0xbbf507fb	-0.007477758
13	0x3a21fdeb	0.00061794993
14	0x00000000	0.0
15	0xbba48858	-0.0050211363
16	0xbc057bf4	-0.0081472285
17	0xbd13a0b4	-0.03604193
18	0x3cb24ecd	0.02176609
19	0xbc9e1607	-0.019297613
20	0x3d335fcf	0.043792542
21	0x00000000	0.0
22	0xb9269db2	-0.0001588974
23	0xbbf9577c	-0.007609306
24	0xbdd99f0c	-0.10626039
25	0x3d9fead2	0.0780846
26	0x3c0fb759	0.008771741
27	0xbd8411e6	-0.06448726
28	0x3d0ee439	0.03488562
29	0x3c4fa78d	0.012674225
30	0xbc3a7e3d	-0.011382637
31	0xbbe65342	-0.007028968
32	0xbd054aab	-0.032541912
33	0xbc7a1dc8	-0.0152658895
34	0xbc8b4810	-0.017002136
35	0xbd06222a	-0.032747425
36	0xbbf1bfe3	-0.007377611
37	0x3c5a3ccd	0.01332016
38	0x00000000	0.0
39	0x3d48a9e7	0.048990157
40	0x36c8bbfe	5.9823496e-06
41	0xbcdbfd86	-0.026854288
42	0x3d5aaa5f	0.053385135
43	0x3d7a0602	0.061040886
44	0xbdbc9c8e	-0.09209548
45	0xbcd87526	-0.026423048
46	0x00000000	0.0
47	0xb9d3bbba	-0.00040384923
48	0xbc1d7379	-0.00961005
49	0x00000000	0.0
50	0xbd8581d8	-0.06518906
51	0x3acb5bd6	0.001551504
52	0xb9e9e268	-0.0004460991
53	0x3ccaee2c	0.024771772
54	0x3cab5424	0.020914145
55	0xbd68a5be	-0.05679869
56	0xbcea9597	-0.028635783
57	0xbd05b344	-0.032641664
58	0xbc95ea39	-0.018300163
59	0x3d122d26	0.03568759
60	0x3cd55866	0.026043128
61	0xbc015349	-0.007893392
62	0xbb1d7884	-0.0024028132
63	0xb70e9f39	-8.5009315e-06

momentum_buffer f4 [16, 64]
0	0x3dc061f8	0.09393686
1	0x3bb686e0	0.0055702776
2	0x3c81049d	0.01574927
3	0x3d12b7b8	0.03581974
4	0x3bdd3840	0.0067510903
5	0x00000000	0.0
6	0x00000000	0.0
7	0x00000000	0.0
8	0x3c1663b0	0.009179041
9	0xbb8d2908	-0.00430787
10	0x3cbc1f20	0.02296406
11	0xbcfcc342	-0.030854825
12	0x3ceba26c	0.028763972
13	0xb7b38f08	-2.1405067e-05
14	0x00000000	0.0
15	0x3e086850	0.13321042
16	0x3c2ac87a	0.010423774
17	0x3d244a4d	0.04010992
18	0x3d0fefa3	0.035140645
19	0xbc0acec4	-0.008472148
20	0x3d737cd3	0.059445214
21	0x00000000	0.0
22	0xbae69c8a	-0.001759426
23	0x3dd8cc51	0.10585845
24	0x3dc4c608	0.09608084
25	0xbdb3e2e8	-0.08783513
26	0x3d7d8e70	0.061903417
27	0x3da75060	0.08169627
28	0xbdff321b	-0.12460729
29	0x3ddbcf50	0.10732901
30	0x3c2b1ae6	0.010443425
31	0x3c43aba0	0.011942774
32	0xbdbc90d9	-0.09207315
33	0x3c95bfb5	0.01827989
34	0x3e1a0d23	0.15044074
35	0x3ddbaf51	0.10726798
36	0x3d7523ea	0.059848703
37	0xbd0cb55e	-0.034352653
38	0x00000000	0.0
39	0x3cff41ff	0.0311594
40	0x34171d6d	1.4073676e-07
41	0x3e268041	0.16259862
42	0x3c667820	0.014066726
43	0xbd078e4e	-0.033094697
44	0xbd9799e0	-0.07402396
45	0xba697b80	-0.00089066476
46	0x00000000	0.0
47	0x3bd80a77	0.0065930444
48	0xbd59a2c0	-0.053133726
49	0x00000000	0.0
50	0xbc8b908f	-0.017036704
51	0x3ad7946e	0.0016447434
52	0xbc3b6b5c	-0.011439171
53	0x3de032e5	0.10947207
54	0x3d33286d	0.043739725
55	0x3ca438db	0.020046642
56	0xbd55f952	-0.052239724
57	0x3d821320	0.06351304
58	0x3d27c7c6	0.040962003
59	0x3db34b9c	0.08754656
60	0x3d595b2e	0.05306547
61	0x3b9512b4	0.0045493487
62	0x3c6f1f08	0.014594801
63	0x38f3ce15	0.00011625529
64	0xbadd32d4	-0.001687611
65	0x3666cadd	3.4390753e-06
66	0xbc2a3545	-0.010388677
67	0x33cffbd2	9.6849945e-08
68	0x3840335f	4.582421e-05
69	0x00000000	0.0
70	0x00000000	0.0
71	0x00000000	0.0
72	0x3348ff28	4.6798192e-08
73	0x37da83ba	2.6048965e-05
74	0xbc0b9d9b	-0.008521463
75	0x34568838	1.9979859e-07
76	0x3448aef2	1.8690096e-07
77	0x33848c47	6.172245e-08
78	0x00000000	0.0
79	0xbab698ab	-0.0013930997
80	0xbbcbaa94	-0.006215403
81	0xbc1002e7	-0.0087897545
82	0x3844d7ec	4.6931134e-05
83	0xb8e96c85	-0.00011130519
84	0x38a75709	7.979392e-05
85	0x00000000	0.0
86	0x2c5adc47	3.1101942e-12
87	0xbc819267	-0.01581688
88	0xbcb8f616	-0.02257828
89	0x3c171787	0.009221918
90	0x3b8d1468	0.004305411
91	0xbcbe1b4c	-0.023206376
92	0x3b670bba	0.0035254792
93	0x393dad00	0.00018088892
94	0x30c229f8	1.4127286e-09
95	0xbba88569	-0.005142857
96	0x3b87bfd0	0.004142739
97	0xbc132f79	-0.008983486
98	0x3b0f97d6	0.002191057
99	0xbbd4ed5e	-0.006498023
100	0x3aadbcb4	0.001325509
101	0x33171e6a	3.518509e-08
102	0x00000000	0.0
103	0xbbd59ac3	-0.006518693
104	0xb438e271	-1.7218714e-07
105	0x3b818cc9	0.0039535505
106	0x381e566a	3.7750615e-05
107	0x3c0ed232	0.008717107
108	0x35a53358	1.2308401e-06
109	0x3b416abc	0.0029513082
110	0x00000000	0.0
111	0xbb98711e	-0.0046521565
112	0x36739866	3.629853e-06
113	0x00000000	0.0
114	0xbc3332aa	-0.010937372
115	0xbbc1db80	-0.005916059
116	0xb903e217	-0.00012577359
117	0x3c01d183	0.007923487
118	0x39d2f25e	0.000402349
119	0xbb89235a	-0.0041851224
120	0x39c0b676	0.00036757038
121	0xbc95a74b	-0.018268248
122	0x3ac4d7a8	0.0015017884
123	0x38dc4247	0.000105027626
124	0xbafeef50	-0.0019449983
125	0x30b38853	1.306271e-09
126	0xbbd6683a	-0.0065431865
127	0x37a0c06c	1.916309e-05
128	0x3d3ede08	0.046598464
129	0x3b352dc9	0.0027645698
130	0x3a633562	0.00086673175
131	0x3b1c1f74	0.0023822458
132	0x3d76667c	0.06015633
133	0x00000000	0.0
134	0x00000000	0.0
135	0x00000000	0.0
136	0x3c94a62e	0.018145647
137	0x3c0ca77c	0.008584853
138	0x3b3dcb0f	0.0028960144
139	0x3c063cf6	0.008193245
140	0x3ac1fde4	0.0014800397
141	0x33051357	3.0984065e-08
142	0x00000000	0.0
143	0x3da24276	0.07922833
144	0x37ae20db	2.0757716e-05
145	0x3b333dca	0.0027350062
146	0x3d291361	0.041278247
147	0x3c8c4348	0.017121926
148	0x3d63f22a	0.055650868
149	0x00000000	0.0
150	0x36911fa8	4.325022e-06
151	0x3d3cf288	0.046129733
152	0x3ceae66c	0.028674327
153	0x3d38f376	0.045154057
154	0x3d1b3610	0.037893355
155	0x3ca1d7ba	0.019756187
156	0x3d10c334	0.03534241
157	0x3d8432c8	0.06454998
158	0x3a4e8e1d	0.0007879453
159	0x36237080	2.4354376e-06
160	0x3c845044	0.016151555
161	0x3719e2bb	9.1723e-06
162	0x3dc0a65f	0.09406733
163	0x3d58fc46	0.05297496
164	0x3d0d82c4	0.034548536
165	0x3c4ee2ca	0.012627313
166	0x00000000	0.0
167	0x3c8cd05b	0.017189195
168	0x1b3a7bfb	1.542562e-22
169	0x3d9568da	0.072953895
170	0x3d1b00b0	0.037842453
171	0x3d4304d8	0.04761204
172	0x3ce542ee	0.027986016
173	0x3d413fe1	0.04718006
174	0x00000000	0.0
175	0x33ead8ac	1.09358865e-07
176	0x3c5b8cdc	0.013400283
177	0x00000000	0.0
178	0x3aa75c9c	0.0012768689
179	0x3629e64a	2.5317008e-06
180	0x36db5995	6.5371373e-06
181	0x3dac900c	0.08425912
182	0x3cc6afa6	0.024253678
183	0x3d14b802	0.036308296
184	0x3d4970fc	0.049180016
185	0x3d04748e	0.032337718
186	0x3ae8baad	0.0017755829
187	0x3d532ec4	0.05155827
188	0x3cecc022	0.02890021
189	0x3a5f1a04	0.00085106515
190	0x35c59007	1.4719561e-06
191	0x2ff6d325	4.4897167e-10
192	0x3826daf1	3.978139e-05
193	0x32dafc35	2.549323e-08
194	0x39514ab3	0.00019959621
195	0x3563b1bd	8.4822733e-07
196	0x3c8aa2c4	0.016923316
197	0x00000000	0.0
198	0x00000000	0.0
199	0x00000000	0.0
200	0x39760344	0.00023461605
201	0x3b80c940	0.003930241
202	0x3d12b835	0.035820205
203	0x3a3e4d50	0.0007259445
204	0x34457e51	1.8393008e-07
205	0x3a71c90d	0.00092233793
206	0x00000000	0.0
207	0x3cc05114	0.023476161
208	0x3beaed2a	0.0071693854
209	0x3d79f475	0.061024148
210	0xbbcae4e8	-0.0061918385
211	0x3d6d428c	0.057924792
212	0xbab005ac	-0.0013429425
213	0x00000000	0.0
214	0x34aac700	3.180976e-07
215	0x3d04aef6	0.03239342
216	0x3d909761	0.07060123
217	0x3dd374ae	0.10324989
218	0x3988e4f0	0.00026110513
219	0x3da3aa57	0.07991474
220	0x3deae6d6	0.1146981
221	0x3cb92365	0.022599885
222	0x388bc833	6.6653265e-05
223	0x359f0bc4	1.1849847e-06
224	0x3df668ee	0.120317325
225	0x3c8f9abe	0.017529842
226	0x39fe5dfc	0.0004851668
227	0x3b9df206	0.004820111
228	0x3a657f70	0.00087546464
229	0xbb98c98c	-0.004662698
230	0x00000000	0.0
231	0x3620bdfc	2.3952443e-06
232	0x158685d2	5.43333e-26
233	0x38aeaca7	8.3291256e-05
234	0xbb6ddeba	-0.0036296085
235	0x3d90f0d8	0.07077187
236	0xbbf40f80	-0.007448137
237	0x3d35d5b5	0.04439326
238	0x00000000	0.0
239	0x2ffcbb20	4.5971493e-10
240	0x3caf077e	0.021365877
241	0x00000000	0.0
242	0x3385f418	6.2376955e-08
243	0x2fe5a559	4.1772344e-10
244	0x29f0b940	1.0690277e-13
245	0xbbf881a1	-0.0075838123
246	0x39759931	0.00023422089
247	0x3d2d3708	0.04228881
248	0x3d73b573	0.059499215
249	0x3cb9ec7e	0.022695776
250	0x3d701cb5	0.058621127
251	0x391d775f	0.00015017156
252	0x3615daed	2.2330162e-06
253	0x3980fba9	0.00024601564
254	0x35469676	7.39797e-07
255	0x34f2e635	4.524351e-07

momentum_buffer f4 [16]
0	0x3c9adee9	0.01890512
1	0x3b81408b	0.0039444617
2	0x3c8a4903	0.016880518
3	0x3c5b48bc	0.01338404
4	0xbd0ed7b0	-0.034873664
5	0xbda5597a	-0.08073707
6	0x3da3b657	0.07993763
7	0x3cea50e4	0.028603025
8	0xbd101473	-0.035175752
9	0xbd470819	-0.048591707
10	0x3d0ca8c2	0.034340627
11	0x3cb3f945	0.021969447
12	0xbd73b197	-0.059495535
13	0x3d07c0f5	0.033143003
14	0x3d105665	0.035238642
15	0xbce10e90	-0.027472764
